…
00, 'warmup_init_lr': 1e-07, 'lr': [0.005], 'min_lr': 1e-06, 't_mult': 1.0, 'lr_period_updates': -1.0, 'lr_shrink': 0.1, 'max_update': 400000}, 'scoring': {'_name': 'bleu', 'pad': 1, 'eos': 2, 'unk': 3}, 'bpe': None, 'tokenizer': None, 'ema': {'_name': None, 'store_ema': False, 'ema_decay': 0.9999, 'ema_start_update': 0, 'ema_seed_model': None, 'ema_update_freq': 1, 'ema_fp32': False}, 'simul_type': None}
2022-01-28 12:59:20 | INFO | fairseq.models.wav2vec.wav2vec | Wav2VecModel(
  (feature_extractor): ConvFeatureExtractionModel(
    (conv_layers): ModuleList(
      (0): Sequential(
        (0): Conv1d(1, 512, kernel_size=(10,), stride=(5,), bias=False)
        (1): Dropout(p=0.0, inplace=False)
        (2): Fp32GroupNorm(1, 512, eps=1e-05, affine=True)
        (3): ReLU()
      )
      (1): Sequential(
        (0): Conv1d(512, 512, kernel_size=(8,), stride=(4,), bias=False)
        (1): Dropout(p=0.0, inplace=False)
        (2): Fp32GroupNorm(1, 512, eps=1e-05, affine=True)
        (3): ReLU()
      )
      (2): Sequential(
        (0): Conv1d(512, 512, kernel_size=(4,), stride=(2,), bias=False)
        (1): Dropout(p=0.0, inplace=False)
        (2): Fp32GroupNorm(1, 512, eps=1e-05, affine=True)
        (3): ReLU()
      )
      (3): Sequential(
        (0): Conv1d(512, 512, kernel_size=(4,), stride=(2,), bias=False)
        (1): Dropout(p=0.0, inplace=False)
        (2): Fp32GroupNorm(1, 512, eps=1e-05, affine=True)
        (3): ReLU()
      )
      (4): Sequential(
        (0): Conv1d(512, 512, kernel_size=(4,), stride=(2,), bias=False)
        (1): Dropout(p=0.0, inplace=False)
        (2): Fp32GroupNorm(1, 512, eps=1e-05, affine=True)
        (3): ReLU()
      )
      (5): Sequential(
        (0): Conv1d(512, 512, kernel_size=(1,), stride=(1,), bias=False)
        (1): Dropout(p=0.0, inplace=False)
        (2): Fp32GroupNorm(1, 512, eps=1e-05, affine=True)
        (3): ReLU()
      )
      (6): Sequential(
        (0): Conv1d(512, 512, kernel_size=(1,), stride=(1,), bias=False)
        (1): Dropout(p=0.0, inplace=False)
        (2): Fp32GroupNorm(1, 512, eps=1e-05, affine=True)
        (3): ReLU()
      )
    )
  )
  (feature_aggregator): ConvAggegator(
    (conv_layers): Sequential(
      (0): Sequential(
        (0): ReplicationPad1d((1, 0))
        (1): Conv1d(512, 512, kernel_size=(2,), stride=(1,))
        (2): Dropout(p=0.0, inplace=False)
        (3): Fp32GroupNorm(1, 512, eps=1e-05, affine=True)
        (4): ReLU()
      )
      (1): Sequential(
        (0): ReplicationPad1d((2, 0))
        (1): Conv1d(512, 512, kernel_size=(3,), stride=(1,))
        (2): Dropout(p=0.0, inplace=False)
        (3): Fp32GroupNorm(1, 512, eps=1e-05, affine=True)
        (4): ReLU()
      )
      (2): Sequential(
        (0): ReplicationPad1d((3, 0))
        (1): Conv1d(512, 512, kernel_size=(4,), stride=(1,))
        (2): Dropout(p=0.0, inplace=False)
        (3): Fp32GroupNorm(1, 512, eps=1e-05, affine=True)
        (4): ReLU()
      )
      (3): Sequential(
        (0): ReplicationPad1d((4, 0))
        (1): Conv1d(512, 512, kernel_size=(5,), stride=(1,))
        (2): Dropout(p=0.0, inplace=False)
        (3): Fp32GroupNorm(1, 512, eps=1e-05, affine=True)
        (4): ReLU()
      )
      (4): Sequential(
        (0): ReplicationPad1d((5, 0))
        (1): Conv1d(512, 512, kernel_size=(6,), stride=(1,))
        (2): Dropout(p=0.0, inplace=False)
        (3): Fp32GroupNorm(1, 512, eps=1e-05, affine=True)
        (4): ReLU()
      )
      (5): Sequential(
        (0): ReplicationPad1d((6, 0))
        (1): Conv1d(512, 512, kernel_size=(7,), stride=(1,))
        (2): Dropout(p=0.0, inplace=False)
        (3): Fp32GroupNorm(1, 512, eps=1e-05, affine=True)
        (4): ReLU()
      )
      (6): Sequential(
        (0): ReplicationPad1d((7, 0))
        (1): Conv1d(512, 512, kernel_size=(8,), stride=(1,))
        (2): Dropout(p=0.0, inplace=False)
        (3): Fp32GroupNorm(1, 512, eps=1e-05, affine=True)
        (4): ReLU()
      )
      (7): Sequential(
        (0): ReplicationPad1d((8, 0))
        (1): Conv1d(512, 512, kernel_size=(9,), stride=(1,))
        (2): Dropout(p=0.0, inplace=False)
        (3): Fp32GroupNorm(1, 512, eps=1e-05, affine=True)
        (4): ReLU()
      )
      (8): Sequential(
        (0): ReplicationPad1d((9, 0))
        (1): Conv1d(512, 512, kernel_size=(10,), stride=(1,))
        (2): Dropout(p=0.0, inplace=False)
        (3): Fp32GroupNorm(1, 512, eps=1e-05, affine=True)
        (4): ReLU()
      )
      (9): Sequential(
        (0): ReplicationPad1d((10, 0))
        (1): Conv1d(512, 512, kernel_size=(11,), stride=(1,))
        (2): Dropout(p=0.0, inplace=False)
        (3): Fp32GroupNorm(1, 512, eps=1e-05, affine=True)
        (4): ReLU()
      )
      (10): Sequential(
        (0): ReplicationPad1d((11, 0))
        (1): Conv1d(512, 512, kernel_size=(12,), stride=(1,))
        (2): Dropout(p=0.0, inplace=False)
        (3): Fp32GroupNorm(1, 512, eps=1e-05, affine=True)
        (4): ReLU()
      )
      (11): Sequential(
        (0): ReplicationPad1d((12, 0))
        (1): Conv1d(512, 512, kernel_size=(13,), stride=(1,))
        (2): Dropout(p=0.0, inplace=False)
        (3): Fp32GroupNorm(1, 512, eps=1e-05, affine=True)
        (4): ReLU()
      )
    )
    (residual_proj): ModuleList(
      (0): None
      (1): None
      (2): None
      (3): None
      (4): None
      (5): None
      (6): None
      (7): None
      (8): None
      (9): None
      (10): None
      (11): None
    )
  )
  (wav2vec_predictions): Wav2VecPredictionsModel(
    (project_to_steps): ConvTranspose2d(512, 512, kernel_size=(1, 12), stride=(1, 1))
    (dropout): Dropout(p=0.0, inplace=False)
  )
  (dropout_feats): Dropout(p=0.0, inplace=False)
  (dropout_agg): Dropout(p=0.0, inplace=False)
)
2022-01-28 12:59:20 | INFO | fairseq_cli.train | Wav2VecModel(
  (feature_extractor): ConvFeatureExtractionModel(
    (conv_layers): ModuleList(
      (0): Sequential(
        (0): Conv1d(1, 512, kernel_size=(10,), stride=(5,), bias=False)
        (1): Dropout(p=0.0, inplace=False)
        (2): Fp32GroupNorm(1, 512, eps=1e-05, affine=True)
        (3): ReLU()
      )
      (1): Sequential(
        (0): Conv1d(512, 512, kernel_size=(8,), stride=(4,), bias=False)
        (1): Dropout(p=0.0, inplace=False)
        (2): Fp32GroupNorm(1, 512, eps=1e-05, affine=True)
        (3): ReLU()
      )
      (2): Sequential(
        (0): Conv1d(512, 512, kernel_size=(4,), stride=(2,), bias=False)
        (1): Dropout(p=0.0, inplace=False)
        (2): Fp32GroupNorm(1, 512, eps=1e-05, affine=True)
        (3): ReLU()
      )
      (3): Sequential(
        (0): Conv1d(512, 512, kernel_size=(4,), stride=(2,), bias=False)
        (1): Dropout(p=0.0, inplace=False)
        (2): Fp32GroupNorm(1, 512, eps=1e-05, affine=True)
        (3): ReLU()
      )
      (4): Sequential(
        (0): Conv1d(512, 512, kernel_size=(4,), stride=(2,), bias=False)
        (1): Dropout(p=0.0, inplace=False)
        (2): Fp32GroupNorm(1, 512, eps=1e-05, affine=True)
        (3): ReLU()
      )
      (5): Sequential(
        (0): Conv1d(512, 512, kernel_size=(1,), stride=(1,), bias=False)
        (1): Dropout(p=0.0, inplace=False)
        (2): Fp32GroupNorm(1, 512, eps=1e-05, affine=True)
        (3): ReLU()
      )
      (6): Sequential(
        (0): Conv1d(512, 512, kernel_size=(1,), stride=(1,), bias=False)
        (1): Dropout(p=0.0, inplace=False)
        (2): Fp32GroupNorm(1, 512, eps=1e-05, affine=True)
        (3): ReLU()
      )
    )
  )
  (feature_aggregator): ConvAggegator(
    (conv_layers): Sequential(
      (0): Sequential(
        (0): ReplicationPad1d((1, 0))
        (1): Conv1d(512, 512, kernel_size=(2,), stride=(1,))
        (2): Dropout(p=0.0, inplace=False)
        (3): Fp32GroupNorm(1, 512, eps=1e-05, affine=True)
        (4): ReLU()
      )
      (1): Sequential(
        (0): ReplicationPad1d((2, 0))
        (1): Conv1d(512, 512, kernel_size=(3,), stride=(1,))
        (2): Dropout(p=0.0, inplace=False)
        (3): Fp32GroupNorm(1, 512, eps=1e-05, affine=True)
        (4): ReLU()
      )
      (2): Sequential(
        (0): ReplicationPad1d((3, 0))
        (1): Conv1d(512, 512, kernel_size=(4,), stride=(1,))
        (2): Dropout(p=0.0, inplace=False)
        (3): Fp32GroupNorm(1, 512, eps=1e-05, affine=True)
        (4): ReLU()
      )
      (3): Sequential(
        (0): ReplicationPad1d((4, 0))
        (1): Conv1d(512, 512, kernel_size=(5,), stride=(1,))
        (2): Dropout(p=0.0, inplace=False)
        (3): Fp32GroupNorm(1, 512, eps=1e-05, affine=True)
        (4): ReLU()
      )
      (4): Sequential(
        (0): ReplicationPad1d((5, 0))
        (1): Conv1d(512, 512, kernel_size=(6,), stride=(1,))
        (2): Dropout(p=0.0, inplace=False)
        (3): Fp32GroupNorm(1, 512, eps=1e-05, affine=True)
        (4): ReLU()
      )
      (5): Sequential(
        (0): ReplicationPad1d((6, 0))
        (1): Conv1d(512, 512, kernel_size=(7,), stride=(1,))
        (2): Dropout(p=0.0, inplace=False)
        (3): Fp32GroupNorm(1, 512, eps=1e-05, affine=True)
        (4): ReLU()
      )
      (6): Sequential(
        (0): ReplicationPad1d((7, 0))
        (1): Conv1d(512, 512, kernel_size=(8,), stride=(1,))
        (2): Dropout(p=0.0, inplace=False)
        (3): Fp32GroupNorm(1, 512, eps=1e-05, affine=True)
        (4): ReLU()
      )
      (7): Sequential(
        (0): ReplicationPad1d((8, 0))
        (1): Conv1d(512, 512, kernel_size=(9,), stride=(1,))
        (2): Dropout(p=0.0, inplace=False)
        (3): Fp32GroupNorm(1, 512, eps=1e-05, affine=True)
        (4): ReLU()
      )
      (8): Sequential(
        (0): ReplicationPad1d((9, 0))
        (1): Conv1d(512, 512, kernel_size=(10,), stride=(1,))
        (2): Dropout(p=0.0, inplace=False)
        (3): Fp32GroupNorm(1, 512, eps=1e-05, affine=True)
        (4): ReLU()
      )
      (9): Sequential(
        (0): ReplicationPad1d((10, 0))
        (1): Conv1d(512, 512, kernel_size=(11,), stride=(1,))
        (2): Dropout(p=0.0, inplace=False)
        (3): Fp32GroupNorm(1, 512, eps=1e-05, affine=True)
        (4): ReLU()
      )
      (10): Sequential(
        (0): ReplicationPad1d((11, 0))
        (1): Conv1d(512, 512, kernel_size=(12,), stride=(1,))
        (2): Dropout(p=0.0, inplace=False)
        (3): Fp32GroupNorm(1, 512, eps=1e-05, affine=True)
        (4): ReLU()
      )
      (11): Sequential(
        (0): ReplicationPad1d((12, 0))
        (1): Conv1d(512, 512, kernel_size=(13,), stride=(1,))
        (2): Dropout(p=0.0, inplace=False)
        (3): Fp32GroupNorm(1, 512, eps=1e-05, affine=True)
        (4): ReLU()
      )
    )
    (residual_proj): ModuleList(
      (0): None
      (1): None
      (2): None
      (3): None
      (4): None
      (5): None
      (6): None
      (7): None
      (8): None
      (9): None
      (10): None
      (11): None
    )
  )
  (wav2vec_predictions): Wav2VecPredictionsModel(
    (project_to_steps): ConvTranspose2d(512, 512, kernel_size=(1, 12), stride=(1, 1))
    (dropout): Dropout(p=0.0, inplace=False)
  )
  (dropout_feats): Dropout(p=0.0, inplace=False)
  (dropout_agg): Dropout(p=0.0, inplace=False)
)
2022-01-28 12:59:20 | INFO | fairseq_cli.train | task: AudioPretrainingTask
2022-01-28 12:59:20 | INFO | fairseq_cli.train | model: Wav2VecModel
2022-01-28 12:59:20 | INFO | fairseq_cli.train | criterion: Wav2vecCriterion
…
