…
: {'version': 1, 'formatters': {'simple': {'format': '[%(asctime)s][%(name)s][%(levelname)s] - %(message)s'}}, 'handlers': {'console': {'class': 'logging.StreamHandler', 'formatter': 'simple', 'stream': 'ext://sys.stdout'}, 'file': {'class': 'logging.FileHandler', 'formatter': 'simple', 'filename': 'hydra_train.log'}}, 'root': {'level': 'INFO', 'handlers': ['console', 'file']}, 'disable_existing_loggers': False}}
[2022-01-03 12:09:29,814][fairseq_cli.train][INFO] - Wav2Vec2Model(
  (feature_extractor): ConvFeatureExtractionModel(
    (conv_layers): ModuleList(
      (0): Sequential(
        (0): Conv1d(1, 512, kernel_size=(10,), stride=(5,), bias=False)
        (1): Dropout(p=0.0, inplace=False)
        (2): Fp32GroupNorm(512, 512, eps=1e-05, affine=True)
        (3): GELU()
      )
      (1): Sequential(
        (0): Conv1d(512, 512, kernel_size=(3,), stride=(2,), bias=False)
        (1): Dropout(p=0.0, inplace=False)
        (2): GELU()
      )
      (2): Sequential(
        (0): Conv1d(512, 512, kernel_size=(3,), stride=(2,), bias=False)
        (1): Dropout(p=0.0, inplace=False)
        (2): GELU()
      )
      (3): Sequential(
        (0): Conv1d(512, 512, kernel_size=(3,), stride=(2,), bias=False)
        (1): Dropout(p=0.0, inplace=False)
        (2): GELU()
      )
      (4): Sequential(
        (0): Conv1d(512, 512, kernel_size=(3,), stride=(2,), bias=False)
        (1): Dropout(p=0.0, inplace=False)
        (2): GELU()
      )
      (5): Sequential(
        (0): Conv1d(512, 512, kernel_size=(2,), stride=(2,), bias=False)
        (1): Dropout(p=0.0, inplace=False)
        (2): GELU()
      )
      (6): Sequential(
        (0): Conv1d(512, 512, kernel_size=(2,), stride=(2,), bias=False)
        (1): Dropout(p=0.0, inplace=False)
        (2): GELU()
      )
    )
  )
  (post_extract_proj): Linear(in_features=512, out_features=288, bias=True)
  (dropout_input): Dropout(p=0.1, inplace=False)
  (dropout_features): Dropout(p=0.1, inplace=False)
  (quantizer): GumbelVectorQuantizer(
    (weight_proj): Linear(in_features=512, out_features=640, bias=True)
  )
  (project_q): Linear(in_features=96, out_features=96, bias=True)
  (encoder): TransformerEncoder(
    (pos_conv): Sequential(
      (0): Conv1d(288, 288, kernel_size=(128,), stride=(1,), padding=(64,), groups=16)
      (1): SamePad()
      (2): GELU()
    )
    (layers): ModuleList(
      (0): TransformerSentenceEncoderLayer(
        (self_attn): MultiheadAttention(
          (dropout_module): FairseqDropout()
          (k_proj): Linear(in_features=288, out_features=288, bias=True)
          (v_proj): Linear(in_features=288, out_features=288, bias=True)
          (q_proj): Linear(in_features=288, out_features=288, bias=True)
          (out_proj): Linear(in_features=288, out_features=288, bias=True)
        )
        (dropout1): Dropout(p=0.1, inplace=False)
        (dropout2): Dropout(p=0.0, inplace=False)
        (dropout3): Dropout(p=0.1, inplace=False)
        (self_attn_layer_norm): LayerNorm((288,), eps=1e-05, elementwise_affine=True)
        (fc1): Linear(in_features=288, out_features=3072, bias=True)
        (fc2): Linear(in_features=3072, out_features=288, bias=True)
        (final_layer_norm): LayerNorm((288,), eps=1e-05, elementwise_affine=True)
      )
      (1): TransformerSentenceEncoderLayer(
        (self_attn): MultiheadAttention(
          (dropout_module): FairseqDropout()
          (k_proj): Linear(in_features=288, out_features=288, bias=True)
          (v_proj): Linear(in_features=288, out_features=288, bias=True)
          (q_proj): Linear(in_features=288, out_features=288, bias=True)
          (out_proj): Linear(in_features=288, out_features=288, bias=True)
        )
        (dropout1): Dropout(p=0.1, inplace=False)
        (dropout2): Dropout(p=0.0, inplace=False)
        (dropout3): Dropout(p=0.1, inplace=False)
        (self_attn_layer_norm): LayerNorm((288,), eps=1e-05, elementwise_affine=True)
        (fc1): Linear(in_features=288, out_features=3072, bias=True)
        (fc2): Linear(in_features=3072, out_features=288, bias=True)
        (final_layer_norm): LayerNorm((288,), eps=1e-05, elementwise_affine=True)
      )
      (2): TransformerSentenceEncoderLayer(
        (self_attn): MultiheadAttention(
          (dropout_module): FairseqDropout()
          (k_proj): Linear(in_features=288, out_features=288, bias=True)
          (v_proj): Linear(in_features=288, out_features=288, bias=True)
          (q_proj): Linear(in_features=288, out_features=288, bias=True)
          (out_proj): Linear(in_features=288, out_features=288, bias=True)
        )
        (dropout1): Dropout(p=0.1, inplace=False)
        (dropout2): Dropout(p=0.0, inplace=False)
        (dropout3): Dropout(p=0.1, inplace=False)
        (self_attn_layer_norm): LayerNorm((288,), eps=1e-05, elementwise_affine=True)
        (fc1): Linear(in_features=288, out_features=3072, bias=True)
        (fc2): Linear(in_features=3072, out_features=288, bias=True)
        (final_layer_norm): LayerNorm((288,), eps=1e-05, elementwise_affine=True)
      )
      (3): TransformerSentenceEncoderLayer(
        (self_attn): MultiheadAttention(
          (dropout_module): FairseqDropout()
          (k_proj): Linear(in_features=288, out_features=288, bias=True)
          (v_proj): Linear(in_features=288, out_features=288, bias=True)
          (q_proj): Linear(in_features=288, out_features=288, bias=True)
          (out_proj): Linear(in_features=288, out_features=288, bias=True)
        )
        (dropout1): Dropout(p=0.1, inplace=False)
        (dropout2): Dropout(p=0.0, inplace=False)
        (dropout3): Dropout(p=0.1, inplace=False)
        (self_attn_layer_norm): LayerNorm((288,), eps=1e-05, elementwise_affine=True)
        (fc1): Linear(in_features=288, out_features=3072, bias=True)
        (fc2): Linear(in_features=3072, out_features=288, bias=True)
        (final_layer_norm): LayerNorm((288,), eps=1e-05, elementwise_affine=True)
      )
      (4): TransformerSentenceEncoderLayer(
        (self_attn): MultiheadAttention(
          (dropout_module): FairseqDropout()
          (k_proj): Linear(in_features=288, out_features=288, bias=True)
          (v_proj): Linear(in_features=288, out_features=288, bias=True)
          (q_proj): Linear(in_features=288, out_features=288, bias=True)
          (out_proj): Linear(in_features=288, out_features=288, bias=True)
        )
        (dropout1): Dropout(p=0.1, inplace=False)
        (dropout2): Dropout(p=0.0, inplace=False)
        (dropout3): Dropout(p=0.1, inplace=False)
        (self_attn_layer_norm): LayerNorm((288,), eps=1e-05, elementwise_affine=True)
        (fc1): Linear(in_features=288, out_features=3072, bias=True)
        (fc2): Linear(in_features=3072, out_features=288, bias=True)
        (final_layer_norm): LayerNorm((288,), eps=1e-05, elementwise_affine=True)
      )
      (5): TransformerSentenceEncoderLayer(
        (self_attn): MultiheadAttention(
          (dropout_module): FairseqDropout()
          (k_proj): Linear(in_features=288, out_features=288, bias=True)
          (v_proj): Linear(in_features=288, out_features=288, bias=True)
          (q_proj): Linear(in_features=288, out_features=288, bias=True)
          (out_proj): Linear(in_features=288, out_features=288, bias=True)
        )
        (dropout1): Dropout(p=0.1, inplace=False)
        (dropout2): Dropout(p=0.0, inplace=False)
        (dropout3): Dropout(p=0.1, inplace=False)
        (self_attn_layer_norm): LayerNorm((288,), eps=1e-05, elementwise_affine=True)
        (fc1): Linear(in_features=288, out_features=3072, bias=True)
        (fc2): Linear(in_features=3072, out_features=288, bias=True)
        (final_layer_norm): LayerNorm((288,), eps=1e-05, elementwise_affine=True)
      )
      (6): TransformerSentenceEncoderLayer(
        (self_attn): MultiheadAttention(
          (dropout_module): FairseqDropout()
          (k_proj): Linear(in_features=288, out_features=288, bias=True)
          (v_proj): Linear(in_features=288, out_features=288, bias=True)
          (q_proj): Linear(in_features=288, out_features=288, bias=True)
          (out_proj): Linear(in_features=288, out_features=288, bias=True)
        )
        (dropout1): Dropout(p=0.1, inplace=False)
        (dropout2): Dropout(p=0.0, inplace=False)
        (dropout3): Dropout(p=0.1, inplace=False)
        (self_attn_layer_norm): LayerNorm((288,), eps=1e-05, elementwise_affine=True)
        (fc1): Linear(in_features=288, out_features=3072, bias=True)
        (fc2): Linear(in_features=3072, out_features=288, bias=True)
        (final_layer_norm): LayerNorm((288,), eps=1e-05, elementwise_affine=True)
      )
      (7): TransformerSentenceEncoderLayer(
        (self_attn): MultiheadAttention(
          (dropout_module): FairseqDropout()
          (k_proj): Linear(in_features=288, out_features=288, bias=True)
          (v_proj): Linear(in_features=288, out_features=288, bias=True)
          (q_proj): Linear(in_features=288, out_features=288, bias=True)
          (out_proj): Linear(in_features=288, out_features=288, bias=True)
        )
        (dropout1): Dropout(p=0.1, inplace=False)
        (dropout2): Dropout(p=0.0, inplace=False)
        (dropout3): Dropout(p=0.1, inplace=False)
        (self_attn_layer_norm): LayerNorm((288,), eps=1e-05, elementwise_affine=True)
        (fc1): Linear(in_features=288, out_features=3072, bias=True)
        (fc2): Linear(in_features=3072, out_features=288, bias=True)
        (final_layer_norm): LayerNorm((288,), eps=1e-05, elementwise_affine=True)
      )
      (8): TransformerSentenceEncoderLayer(
        (self_attn): MultiheadAttention(
          (dropout_module): FairseqDropout()
          (k_proj): Linear(in_features=288, out_features=288, bias=True)
          (v_proj): Linear(in_features=288, out_features=288, bias=True)
          (q_proj): Linear(in_features=288, out_features=288, bias=True)
          (out_proj): Linear(in_features=288, out_features=288, bias=True)
        )
        (dropout1): Dropout(p=0.1, inplace=False)
        (dropout2): Dropout(p=0.0, inplace=False)
        (dropout3): Dropout(p=0.1, inplace=False)
        (self_attn_layer_norm): LayerNorm((288,), eps=1e-05, elementwise_affine=True)
        (fc1): Linear(in_features=288, out_features=3072, bias=True)
        (fc2): Linear(in_features=3072, out_features=288, bias=True)
        (final_layer_norm): LayerNorm((288,), eps=1e-05, elementwise_affine=True)
      )
      (9): TransformerSentenceEncoderLayer(
        (self_attn): MultiheadAttention(
          (dropout_module): FairseqDropout()
          (k_proj): Linear(in_features=288, out_features=288, bias=True)
          (v_proj): Linear(in_features=288, out_features=288, bias=True)
          (q_proj): Linear(in_features=288, out_features=288, bias=True)
          (out_proj): Linear(in_features=288, out_features=288, bias=True)
        )
        (dropout1): Dropout(p=0.1, inplace=False)
        (dropout2): Dropout(p=0.0, inplace=False)
        (dropout3): Dropout(p=0.1, inplace=False)
        (self_attn_layer_norm): LayerNorm((288,), eps=1e-05, elementwise_affine=True)
        (fc1): Linear(in_features=288, out_features=3072, bias=True)
        (fc2): Linear(in_features=3072, out_features=288, bias=True)
        (final_layer_norm): LayerNorm((288,), eps=1e-05, elementwise_affine=True)
      )
      (10): TransformerSentenceEncoderLayer(
        (self_attn): MultiheadAttention(
          (dropout_module): FairseqDropout()
          (k_proj): Linear(in_features=288, out_features=288, bias=True)
          (v_proj): Linear(in_features=288, out_features=288, bias=True)
          (q_proj): Linear(in_features=288, out_features=288, bias=True)
          (out_proj): Linear(in_features=288, out_features=288, bias=True)
        )
        (dropout1): Dropout(p=0.1, inplace=False)
        (dropout2): Dropout(p=0.0, inplace=False)
        (dropout3): Dropout(p=0.1, inplace=False)
        (self_attn_layer_norm): LayerNorm((288,), eps=1e-05, elementwise_affine=True)
        (fc1): Linear(in_features=288, out_features=3072, bias=True)
        (fc2): Linear(in_features=3072, out_features=288, bias=True)
        (final_layer_norm): LayerNorm((288,), eps=1e-05, elementwise_affine=True)
      )
      (11): TransformerSentenceEncoderLayer(
        (self_attn): MultiheadAttention(
          (dropout_module): FairseqDropout()
          (k_proj): Linear(in_features=288, out_features=288, bias=True)
          (v_proj): Linear(in_features=288, out_features=288, bias=True)
          (q_proj): Linear(in_features=288, out_features=288, bias=True)
          (out_proj): Linear(in_features=288, out_features=288, bias=True)
        )
        (dropout1): Dropout(p=0.1, inplace=False)
        (dropout2): Dropout(p=0.0, inplace=False)
        (dropout3): Dropout(p=0.1, inplace=False)
        (self_attn_layer_norm): LayerNorm((288,), eps=1e-05, elementwise_affine=True)
        (fc1): Linear(in_features=288, out_features=3072, bias=True)
        (fc2): Linear(in_features=3072, out_features=288, bias=True)
        (final_layer_norm): LayerNorm((288,), eps=1e-05, elementwise_affine=True)
      )
    )
    (layer_norm): LayerNorm((288,), eps=1e-05, elementwise_affine=True)
  )
  (layer_norm): LayerNorm((512,), eps=1e-05, elementwise_affine=True)
  (final_proj): Linear(in_features=288, out_features=96, bias=True)
)
[2022-01-03 12:09:29,816][fairseq_cli.train][INFO] - task: AudioPretrainingTask
[2022-01-03 12:09:29,816][fairseq_cli.train][INFO] - model: Wav2Vec2Model
[2022-01-03 12:09:29,816][fairseq_cli.train][INFO] - criterion: Wav2vecCriterion
[2022-01-03 12:09:29,818][fairseq_cli.train][INFO] - num. shared model params: 30,693,088 (num. trained: 30,693,088)
[2022-01-03 12:09:29,818][fairseq_cli.train][INFO] - num. expert model params: 0 (num. trained: 0)
…
